Model: "functional_73"
_________________________________________________________________
Layer (type)                 Output Shape              Param #   
=================================================================
input_22 (InputLayer)        [(None, 28, 28, 1)]       0         
_________________________________________________________________
conv2d_299 (Conv2D)          (None, 28, 28, 32)        320       
_________________________________________________________________
batch_normalization_267 (Bat (None, 28, 28, 32)        128       
_________________________________________________________________
conv2d_300 (Conv2D)          (None, 28, 28, 32)        9248      
_________________________________________________________________
batch_normalization_268 (Bat (None, 28, 28, 32)        128       
_________________________________________________________________
max_pooling2d_40 (MaxPooling (None, 14, 14, 32)        0         
_________________________________________________________________
conv2d_301 (Conv2D)          (None, 14, 14, 64)        18496     
_________________________________________________________________
batch_normalization_269 (Bat (None, 14, 14, 64)        256       
_________________________________________________________________
conv2d_302 (Conv2D)          (None, 14, 14, 64)        36928     
_________________________________________________________________
batch_normalization_270 (Bat (None, 14, 14, 64)        256       
_________________________________________________________________
max_pooling2d_41 (MaxPooling (None, 7, 7, 64)          0         
_________________________________________________________________
conv2d_303 (Conv2D)          (None, 7, 7, 128)         73856     
_________________________________________________________________
batch_normalization_271 (Bat (None, 7, 7, 128)         512       
_________________________________________________________________
conv2d_304 (Conv2D)          (None, 7, 7, 128)         147584    
_________________________________________________________________
batch_normalization_272 (Bat (None, 7, 7, 128)         512       
_________________________________________________________________
conv2d_305 (Conv2D)          (None, 7, 7, 256)         295168    
_________________________________________________________________
batch_normalization_273 (Bat (None, 7, 7, 256)         1024      
_________________________________________________________________
conv2d_306 (Conv2D)          (None, 7, 7, 256)         590080    
_________________________________________________________________
batch_normalization_274 (Bat (None, 7, 7, 256)         1024      
_________________________________________________________________
flatten_15 (Flatten)         (None, 12544)             0         
_________________________________________________________________
dense_30 (Dense)             (None, 128)               1605760   
_________________________________________________________________
dense_31 (Dense)             (None, 10)                1290      
=================================================================
Total params: 2,782,570
Trainable params: 2,780,650
Non-trainable params: 1,920



Epoch 1/100
  2/469 [..............................] - ETA: 55s - loss: 3.6643 - categorical_accuracy: 0.2773 - recall_6: 0.1797 - precision_11: 0.3262WARNING:tensorflow:Callbacks method `on_train_batch_end` is slow compared to the batch time (batch time: 0.0771s vs `on_train_batch_end` time: 0.1587s). Check your callbacks.
…
