Model: "functional_63"
_________________________________________________________________
Layer (type)                 Output Shape              Param #   
=================================================================
input_22 (InputLayer)        [(None, 28, 28, 1)]       0         
_________________________________________________________________
conv2d_299 (Conv2D)          (None, 28, 28, 32)        320       
_________________________________________________________________
batch_normalization_267 (Bat (None, 28, 28, 32)        128       
_________________________________________________________________
conv2d_300 (Conv2D)          (None, 28, 28, 32)        9248      
_________________________________________________________________
batch_normalization_268 (Bat (None, 28, 28, 32)        128       
_________________________________________________________________
max_pooling2d_40 (MaxPooling (None, 14, 14, 32)        0         
_________________________________________________________________
conv2d_301 (Conv2D)          (None, 14, 14, 64)        18496     
_________________________________________________________________
batch_normalization_269 (Bat (None, 14, 14, 64)        256       
_________________________________________________________________
conv2d_302 (Conv2D)          (None, 14, 14, 64)        36928     
_________________________________________________________________
batch_normalization_270 (Bat (None, 14, 14, 64)        256       
_________________________________________________________________
max_pooling2d_41 (MaxPooling (None, 7, 7, 64)          0         
_________________________________________________________________
conv2d_303 (Conv2D)          (None, 7, 7, 128)         73856     
_________________________________________________________________
batch_normalization_271 (Bat (None, 7, 7, 128)         512       
_________________________________________________________________
conv2d_304 (Conv2D)          (None, 7, 7, 128)         147584    
_________________________________________________________________
batch_normalization_272 (Bat (None, 7, 7, 128)         512       
_________________________________________________________________
conv2d_305 (Conv2D)          (None, 7, 7, 256)         295168    
_________________________________________________________________
batch_normalization_273 (Bat (None, 7, 7, 256)         1024      
_________________________________________________________________
conv2d_306 (Conv2D)          (None, 7, 7, 256)         590080    
_________________________________________________________________
batch_normalization_274 (Bat (None, 7, 7, 256)         1024      
_________________________________________________________________
conv2d_307 (Conv2D)          (None, 7, 7, 128)         295040    
_________________________________________________________________
batch_normalization_275 (Bat (None, 7, 7, 128)         512       
_________________________________________________________________
conv2d_308 (Conv2D)          (None, 7, 7, 128)         147584    
_________________________________________________________________
batch_normalization_276 (Bat (None, 7, 7, 128)         512       
_________________________________________________________________
conv2d_309 (Conv2D)          (None, 7, 7, 64)          73792     
_________________________________________________________________
batch_normalization_277 (Bat (None, 7, 7, 64)          256       
_________________________________________________________________
conv2d_310 (Conv2D)          (None, 7, 7, 64)          36928     
_________________________________________________________________
batch_normalization_278 (Bat (None, 7, 7, 64)          256       
_________________________________________________________________
up_sampling2d_38 (UpSampling (None, 14, 14, 64)        0         
_________________________________________________________________
conv2d_311 (Conv2D)          (None, 14, 14, 32)        18464     
_________________________________________________________________
batch_normalization_279 (Bat (None, 14, 14, 32)        128       
_________________________________________________________________
conv2d_312 (Conv2D)          (None, 14, 14, 32)        9248      
_________________________________________________________________
batch_normalization_280 (Bat (None, 14, 14, 32)        128       
_________________________________________________________________
up_sampling2d_39 (UpSampling (None, 28, 28, 32)        0         
_________________________________________________________________
conv2d_313 (Conv2D)          (None, 28, 28, 1)         289       
=================================================================
Total params: 1,758,657
Trainable params: 1,755,841
Non-trainable params: 2,816
_______________________________________


Epoch 1/100
  2/329 [..............................] - ETA: 58s - loss: 0.2741WARNING:tensorflow:Callbacks method `on_train_batch_end` is slow compared to the batch time (batch time: 0.0601s vs `on_train_batch_end` time: 0.2953s). Check your callbacks.
…
